model_epoch_599.pth (torch, 243591 bytes, 8 tensors)

weight f4 [64, 1, 5, 5]
-0.26564464 0.10206881 -0.24539307 -0.1969862 -0.028888457 -0.087754026 0.007373411 0.024050571
-0.17548129 -0.118105516 -0.094192944 -0.044029906 -0.20793512 0.11150086 -0.17707846 -0.13108023
0.1064343 0.2571536 -0.19730017 0.035044968 0.00048184345 -0.24777503 0.15685637 -0.14791639
-0.2677722 -0.21027334 0.11433267 -0.19027732 0.1680038 -0.15380599 0.10086449 0.12540266
-0.40675575 -0.34059596 0.16762172 -0.06992221 -0.25034124 -0.6041029 -0.08152416 -0.6491696
0.16596349 0.0016611425 0.39515287 0.6075846 0.5200088 -0.020540996 0.03162855 0.03295612
-0.15395233 -0.14129262 -0.8425979 -0.49464625 0.6751546 -0.7054453 0.10845454 -0.6859416
0.36328447 -0.39982083 -0.8662855 0.69448245 0.62882066 -0.3460475 -0.48783967 0.41165593
-0.14609359 0.14809701 -0.24827677 -0.25891393 0.37897378 0.25633034 -0.6593599 -1.4832934
0.39091215 0.35316154 0.02221961 0.049213506 0.10564298 -0.20411192 -0.29783913 -0.021506121
-0.26042813 0.30371737 -0.030886473 -0.26371193 0.061212827 0.06666366 0.03201052 -0.22671476
-0.42701536 -0.02137538 0.0018057391 0.05410111 -0.2429514 -0.07326107 0.03196509 -0.05010988
0.18671471 -0.24146709 0.14232318 -0.19338822 0.07930466 -0.0420346 -0.12669548 -0.061716087
-0.12554118 -0.017430495 0.089999184 -0.057041578 0.3947278 0.16464767 -0.025473699 -0.009292899
-0.38272065 -0.2769391 -0.15644626 -0.5352492 0.0027895044 -0.10698774 -0.07411338 -0.062806726
0.135802 0.04974051 -0.34912166 0.08800243 0.09457066 0.08827419 -1.0941826 -0.11044468
0.3920604 -0.5508488 0.47632837 -0.08591024 -0.6201891 -0.81595594 -0.46256334 0.28901064
0.58317876 0.7446934 -0.0022209662 -0.3658102 -0.25314778 -0.6939579 -0.28012365 -0.8659145
-0.3300397 -0.4826281 -0.5890944 0.32548437 0.056494005 0.12642169 -0.15715313 -0.5826672
0.008098116 -0.01873263 0.0073724245 0.035829756 0.10249389 -0.8012938 -0.08744196 -0.15804645
-0.101764165 0.37133047 0.04081598 0.25012553 -0.11202088 -0.21348941 -0.29530683 -0.20417087
-0.046855334 -0.2299486 0.04205567 -0.04577972 -0.052652188 -0.0055185943 -0.032283805 -0.030227348
0.11245979 -0.009506684 -0.25659093 0.119154654 -0.034132235 -0.53711504 0.16332267 0.4051149
0.15328847 0.27697614 0.5532778 0.67093956 -0.3874389 -0.4526598 0.0128408335 -0.511983
-0.50319743 -0.033901326 0.17156415 -0.10029678 0.1641766 -0.039618913 0.013420558 0.066001125
-0.046467833 0.16411056 -0.012432929 0.0075473427 -0.032570697 0.03366081 -0.0010755658 -0.0670398
-0.03013984 0.084557235 0.121396825 -1.6540693 0.8013766 -0.04179779 0.07789204 0.05987961
0.108918376 -0.10429342 0.039722793 -0.055729043 0.006613543 0.033605423 0.020533415 0.05413339
-0.02967891 0.079678416 -0.2723361 0.20478156 -0.061167587 0.00976177 -0.12490141 1.0378423
-0.92908293 0.037187725 -0.04590737 -0.0787628 0.6118317 -0.6724501 0.1789835 0.01361289
0.10886137 -0.23373708 0.21448329 -0.09927379 -0.00908374 -0.014872394 0.025487557 -0.03809335
-0.028573139 0.03177077 -0.19313924 0.059808046 -0.24244049 -0.14148507 -0.15335684 0.48714283
00000000: 9302 88be 7409 d13d 5248 7bbe c0b6 49be
00000010: 7ca7 ecbc 62b8 b3bd a89c f13b b405 c53c
00000020: 5eb1 33be 4ee1 f1bd 3be8 c0bd b458 34bd
00000030: f2ec 54be 905a e43d 0e54 35be e539 06be
00000040: 3afa d93d a3a9 833e 0e09 4abe 508b 0f3d
00000050: ef9f fc39 bdb8 7dbe f59e 203e 6577 17be
00000060: 7019 89be e551 57be 3f27 ea3d 0fd8 42be
00000070: 3009 2c3e 517f 1dbe 0b92 ce3d 8e69 003e
00000080: 4a42 d0be 9862 aebe 07a5 2b3e 6033 8fbd
00000090: ba2c 80be 7da6 1abf 24f6 a6bd fb2f 26bf
000000a0: 55f2 293e b1ba d93a 7a51 ca3e aa8a 1b3f
000000b0: 4c1f 053f 9745 a8bc f08c 013d fffc 063d
000000c0: aea5 1dbe 03af 10be 7fb4 57bf 4642 fdbe
000000d0: efd6 2c3f 1098 34bf 6a1d de3d de99 2fbf
000000e0: 6c00 ba3e 51b5 ccbe e3c4 5dbf 9ac9 313f
000000f0: 64fa 203f 232d b1be 1fc6 f9be 91c4 d23e
00000100: 8f99 15be bea6 173e 443c 7ebe 5e90 84be
00000110: da08 c23e bb3d 833e cfcb 28bf 8fdc bdbf
00000120: a325 c83e 97d1 b43e e605 b63c 1a94 493d
00000130: 595b d83d b702 51be 5f7e 98be 9b2d b0bc
00000140: d656 85be d880 9b3e a105 fdbc 4005 87be
00000150: 4dba 7a3d f586 883d 771d 033d ea27 68be
00000160: c2a1 dabe 6c1b afbc 8dae ec3a 2099 5d3d
00000170: 40c8 78be e609 96bd d4ed 023d 0440 4dbd
00000180: 2432 3f3e 2643 77be 2bbd 113e 9007 46be
00000190: 7b6a a23d 792c 2cbd 76bc 01be 02ca 7cbd
000001a0: de8d 00be 66ca 8ebc 7e51 b83d 6ea4 69bd
000001b0: c319 ca3e 6699 283e 38ae d0bc 3e41 18bc
000001c0: f6f3 c3be f6ca 8dbe 7333 20be 1706 09bf
000001d0: 1ed0 363b 631c dbbd c1c8 97bd d0a0 80bd
000001e0: ae0f 0b3e b4bc 4b3d 13c0 b2be 9e3a b43d
000001f0: 43ae c13d 19c9 b43d 2d0e 8cbf d230 e2bd
00000200: 24bc c83e 6d04 0dbf 50e1 f33e b5f1 afbd
00000210: b6c4 1ebf 7de2 50bf 1ad5 ecbe 34f9 933e
00000220: 344b 153f 3aa4 3e3f a18d 11bb 794b bbbe
00000230: 969c 81be 3aa7 31bf 5e6c 8fbe 93ac 5dbf
00000240: f7fa a8be 081b f7be e4ce 16bf e3a5 a63e
00000250: 4266 673d b074 013e c0ec 20be ad29 15bf
00000260: f6ad 043c 2c75 99bc 6194 f13b 39c2 123d
00000270: 51e8 d13d 9721 4dbf c514 b3bd eed6 21be
00000280: bb69 d0bd 071f be3e a82e 273d 7410 803e
00000290: 346b e5bd f89c 5abe 7532 97be 2b12 51be
000002a0: 61eb 3fbd a577 6bbe 9142 2c3d 8483 3bbd
000002b0: d2a9 57bd 53d5 b4bb 063c 04bd 589f f7bc
000002c0: 5251 e63d ecc1 1bbc e35f 83be 5b07 f43d
000002d0: 3ece 0bbd 5f80 09bf 0f3e 273e 386b cf3e
000002e0: a7f7 1c3e d1cf 8d3e 9da3 0d3f b2c2 2b3f
000002f0: 645e c6be 06c3 e7be 5c62 523c 5111 03bf
00000300: 8cd1 00bf 1edc 0abd 83ae 2f3e 6668 cdbd
00000310: e91d 283e 7147 22bd e6e1 5b3c 992b 873d
00000320: 0e55 3ebd 990c 283e 7cb3 4bbc b34f f73b
00000330: da68 05bd ebdf 093d 00fa 8cba 2a4c 89bd
00000340: d3e7 f6bc 582c ad3d e69e f83d 8bb8 d3bf
00000350: 0427 4d3f 2934 2bbd dd85 9f3d 5244 753d
00000360: 9910 df3d ca97 d5bd 5eb4 223d 2344 64bd
00000370: 6bb6 d83b d7a5 093d b135 a83c f9ba 5d3d
00000380: 2f21 f3bc 702e a33d a36f 8bbe 42b2 513e
00000390: dd8a 7abd d5ef 1f3c 4fcc ffbd 04d8 843f
000003a0: 61d8 6dbf 2852 183d 5e09 3cbd 644e a1bd
000003b0: 01a1 1c3f b125 2cbf 7347 373e 9908 5f3c
000003c0: b6f2 de3d c658 6fbe 82a1 5b3e 0f50 cbbd
000003d0: f8d3 14bc 57ab 73bc 48cb d03c c607 1cbd
000003e0: 3712 eabc 1122 023d 4bc6 45be 48f9 743d
000003f0: 5242 78be 76e1 10be 9309 1dbe c96a f93e

bias f4 [64]
-0.09715569 0.005076438 -0.344842 -0.14927888 -0.32798523 0.05209305 -0.07781324 -0.025574932
0.044140674 -0.0025149863 -0.0209773 0.28497365 0.010243972 0.0039824685 0.109305486 0.004689936
-0.085593395 -0.22958928 -0.08743386 -0.053713653 -0.15116984 0.01336489 0.02486166 -0.035908993
-0.2720421 -0.2618082 -0.15345916 -0.64486575 0.27606446 -0.3620629 -0.04920436 -0.013375515
-0.10493347 -0.17114891 -0.07206296 -0.265458 -0.08277017 0.061845925 -0.23100176 -0.10470643
-0.1137143 0.1447406 -0.0004245841 -0.15447888 -0.17271306 -0.091150865 -0.028480578 -0.16110541
-0.014764278 -0.15779458 0.028295161 -0.21829113 -0.21462902 -0.012632195 -0.03219571 -0.16771285
-0.013497792 0.08176823 -0.2149984 -0.044279505 -0.761498 0.108450145 -0.027992703 -0.29646394
00000000: 90f9 c6bd 4058 a63b 218f b0be 90dc 18be
00000010: aeed a7be 865f 553d 8c5c 9fbd 8582 d1bc
00000020: dacc 343d 78d2 24bb 96d8 abbc 11e8 913e
00000030: 55d6 273c 5e7f 823b 8edb df3d 09ae 993b
00000040: 974b afbd 7419 6bbe 8610 b3bd d902 5cbd
00000050: 44cc 1abe 69f8 5a3c aeaa cb3c 4f15 13bd
00000060: 1a49 8bbe b90b 86be 6624 1dbe ec15 25bf
00000070: 5258 8d3e 4f60 b9be 838a 49bd fa24 5bbc
00000080: 5ce7 d6bd a941 2fbe bf95 93bd 1cea 87be
00000090: 6883 a9bd 2752 7d3d ba8b 6cbe 5370 d6bd
000000a0: 0be3 e8bd e136 143e b79a deb9 b62f 1ebe
000000b0: b1db 30be 4ead babd 1a50 e9bc d1f8 24be
000000c0: dfe5 71bc e794 21be 41cb e73c b687 5fbe
000000d0: b6c7 5bbe 44f7 4ebc a6df 03bd ebbc 2bbe
000000e0: d825 5dbc 1a76 a73d 8a28 5cbe 6d5e 35bd
000000f0: 88f1 42bf 1c1b de3d f450 e5bc 1fca 97be

weight f4 [64, 64, 3, 3]
-0.02767529 0.019517057 0.07743668 -0.03079573 -0.0023004888 0.0060941465 -0.05521881 0.05346127
0.011312059 -0.1484685 0.13581444 0.28413486 1.4524518 0.60654116 -0.12331108 -0.3491846
-0.17588046 -0.34159157 -1.2500666 -2.210124 0.83423936 -0.17498337 0.76363415 -0.64452124
-0.12392709 -0.5208284 0.270373 0.09645237 0.20397909 0.003117116 -0.0670723 0.32015038
0.027129637 0.0016068154 0.5496644 -0.41164312 -0.027965846 -0.061638746 -0.049626153 0.050380442
0.30865318 -0.046819303 0.124697916 -0.037607744 0.060166333 -0.21324751 -0.81949997 -0.6224724
-0.05116968 -0.38184336 0.13591678 0.53117883 -0.8961455 -0.62393904 -0.071441405 0.04688075
0.0739803 0.02908875 -0.15264468 -0.11060251 0.008060751 0.002797031 0.029141849 0.086448856
-0.21831053 -0.1436489 0.01754376 0.08099219 -0.27009344 0.11021276 0.079300225 -0.14405985
-0.36654145 0.1968394 0.06653979 0.4500268 -0.3216132 -1.1940582 -0.3499334 -0.045404002
0.07604461 0.1614825 -0.10474746 -0.14507043 0.06774794 0.096853346 -0.3120578 -0.08632919
-0.6424365 -0.12385044 -0.11865583 -0.79412323 -0.042045638 -1.1873775 -0.04049463 0.019295102
-1.0769917 0.37002578 -0.059411954 -0.10620799 0.34798953 -1.1887563 -0.5391661 -0.12850258
0.24754666 0.77178776 -2.08631 1.3231579 0.031639323 -0.47205022 0.014831639 0.17315371
0.22830147 -0.29009166 -1.2737495 -0.49904704 0.2390489 -0.48488918 0.038041674 0.04518018
-0.49701732 0.32008776 0.021183083 -0.15313828 0.05873673 0.18358986 0.016994746 -0.6011706
-0.11344772 0.53858376 0.17879817 0.2197775 -0.14743593 0.21677208 -0.18482472 0.05911219
-0.09343321 0.09891661 -0.16907245 -0.022022933 0.11481438 -0.46792343 0.32579014 0.16414636
0.5114487 -0.19737491 0.3613926 0.39264852 0.6596376 -0.2914549 -0.036823962 0.95636606
-1.24735 -0.09248129 -0.06598858 -0.051696736 -0.07807079 0.058138784 -0.051111724 0.014926246
0.07427008 0.019355066 -1.1512496 0.6698028 0.5145942 1.4256428 -1.9139161 -0.15946344
1.1221691 0.301829 0.008600718 0.0762994 0.31157792 0.055697452 -0.23503222 -0.15644506
-0.24280557 -0.030779948 0.24664775 0.14458996 0.012467552 -0.06506223 0.21982946 -0.03345577
-0.32786596 0.3009458 0.21546629 -0.015986959 -0.36939022 -0.04585394 0.1730844 -0.43630627
-0.098052345 -0.07559409 -0.28546485 -0.022211835 -0.28109896 0.14566943 -0.15597565 -0.23792821
-1.066482 -0.38851026 0.028336287 -0.18176189 -0.30985376 0.2555998 0.47499752 0.051818345
0.11761906 -0.08316096 0.031011026 -0.19135477 0.11991977 -0.29228634 0.072399236 0.032524157
-0.97272307 -0.20096199 1.1214949 0.6398754 0.010290878 -0.7475231 -0.117628686 0.2017499
0.20489368 0.013077679 -0.02293844 0.020319479 0.04369771 -0.09810044 0.0066144047 0.012883107
-0.013761762 0.0007172938 0.007906709 0.050257836 0.0030252773 0.04805056 -0.04158809 0.03461984
-0.038812842 -0.093044974 0.163522 -0.20611939 -0.10637702 -0.11250403 -0.0616769 0.38493094
-0.23311219 0.20096448 -0.40562773 0.24378642 -0.7524058 0.67212546 1.1860975 0.96578276
00000000: 4ab7 e2bc 3ce2 9f3c 1f97 9e3d 5447 fcbc
00000010: ccc3 16bb 68b1 c73b 1e2d 62bd 34fa 5a3d
00000020: 3756 393c 2008 18be f112 0b3e 207a 913e
00000030: f1e9 b93f 4846 1b3f 858a fcbd 53c8 b2be
00000040: 021a 34be 17e5 aebe 2f02 a0bf ac72 0dc0
00000050: b690 553f d72e 33be 877d 433f 58ff 24bf
00000060: 7ccd fdbd 0355 05bf 546e 8a3e d288 c53d
00000070: e5df 503e 8748 4c3b 345d 89bd c0ea a33e
00000080: f93e de3c c79b d23a ceb6 0c3f e3c2 d2be
00000090: a118 e5bc e978 7cbd cb44 4bbd b95b 4e3d
000000a0: ca07 9e3e 99c5 3fbd 9f61 ff3d 940a 1abd
000000b0: f970 763d 8e5d 5abe c0ca 51bf 5a5a 1fbf
000000c0: 4c97 51bd f980 c3be c52d 0b3e 56fb 073f
000000d0: cb69 65bf 78ba 1fbf df4f 92bd 0806 403d
000000e0: fc82 973d 884b ee3c e34e 1cbe 9283 e2bd
000000f0: 3d11 043c 654e 373b e3ba ee3c 190c b13d
00000100: cc8c 5fbe b218 13be eeb7 8f3c 3cdf a53d
00000110: b049 8abe 3ab7 e13d 2868 a23d 6d84 13be
00000120: 52ab bbbe 4590 493e 0346 883d ea69 e63e
00000130: 7caa a4be e6d6 98bf 782a b3be 8cf9 39bd
00000140: 47bd 9b3d ab5b 253e d685 d6bd 588d 14be
00000150: 6fbf 8a3d 0c5b c63d 0ac6 9fbe 5ccd b0bd
00000160: b876 24bf 4da5 fdbd d401 f3bd a94b 4bbf
00000170: 0c38 2cbd fcfb 97bf b2dd 25bd c310 9e3c
00000180: ddda 89bf 0574 bd3e f359 73bd 9383 d9bd
00000190: af2b b23e 2b29 98bf ca06 0abf 2e96 03be
000001a0: df7c 7d3e e293 453f 1a86 05c0 3d5d a93f
000001b0: 3c98 013d 91b0 f1be 6700 733c 354f 313e
000001c0: dcc7 693e e586 94be 390a a3bf 1883 ffbe
000001d0: 3cc9 743e 6543 f8be 96d1 1b3d da0e 393d
000001e0: 0e79 febe 8be2 a33e 2588 ad3c 48d0 1cbe
000001f0: ed95 703d fbfe 3b3e 9138 8b3c 51e6 19bf
00000200: 4757 e8bd a0e0 093f de16 373e 5a0d 613e
00000210: 72f9 16be 80f9 5d3e b142 3dbe a01f 723d
00000220: e959 bfbd cb94 ca3d 5421 2dbe 7069 b4bc
00000230: cd23 eb3d a993 efbe f7cd a63e fc15 283e
00000240: 4dee 023f a61c 4abe 7308 b93e 3a09 c93e
00000250: 02de 283f 9439 95be b9d4 16bd 68d4 743f
00000260: 2aa9 9fbf d566 bdbd 0525 87bd f5bf 53bd
00000270: 94e3 9fbd ef22 6e3d 875a 51bd 378d 743c
00000280: e91a 983d 848e 9e3c 265c 93bf 3278 2b3f
00000290: 72bc 033f 777b b63f 34fb f4bf 624a 23be
000002a0: 3da3 8f3f 5589 9a3e 07ea 0c3c dc42 9c3d
000002b0: 2487 9f3e 0323 643d 49ac 70be 2233 20be
000002c0: 06a2 78be 3b26 fcbc 3a91 7c3e 640f 143e
000002d0: b444 4c3c 593f 85bd f91a 613e eb08 09bd
000002e0: 0cde a7be 9115 9a3e 32a3 5c3e 15f7 82bc
000002f0: b720 bdbe 57d1 3bbd 093d 313e 8963 dfbe
00000300: abcf c8bd 13d1 9abd 7328 92be 98f5 b5bc
00000310: 34ec 8fbe 5e2a 153e 15b8 1fbe 74a3 73be
00000320: 7b82 88bf d1ea c6be 8021 e83c ca1f 3abe
00000330: 27a5 9ebe fadd 823e e032 f33e 793f 543d
00000340: 43e2 f03d 4b50 aabd d60a fe3c 81f2 43be
00000350: 7f98 f53d 8ea6 95be 0d46 943d 0d38 053d
00000360: 6104 79bf fbc8 4dbe 258d 8f3f e0ce 233f
00000370: 129b 283c ad5d 3fbf 4fe7 f0bd 8797 4e3e
00000380: a6cf 513e c343 563c 65e9 bbbc 0975 a63c
00000390: 5ffc 323d e2e8 c8bd a6bd d83b ab13 533c
000003a0: 0379 61bc c608 3c3a 248b 013c 29db 4d3d
000003b0: bb43 463b aad0 443d 4658 2abd 89cd 0d3d
000003c0: 37fa 1ebd 5d8e bebd 5072 273e f610 53be
000003d0: 32dc d9bd 8368 e6bd eba0 7cbd ab15 c53e
000003e0: f6b4 6ebe a2c9 4d3e 70ae cfbe 26a3 793e
000003f0: ab9d 40bf 6a10 2c3f 0bd2 973f 8a3d 773f

bias f4 [64]
-0.14043975 -0.04003807 0.024864357 -0.047791395 -0.23093976 -0.10955627 0.008727353 -0.082437895
-0.15713339 -0.01481917 -0.10543877 0.15006904 -0.117848344 -0.06403963 -0.19059087 0.029799992
-0.10551064 -0.09272653 0.06318603 -0.06366699 -0.023047933 -0.3240621 -0.043220196 -0.13692889
0.05420281 -0.08035433 -0.07996127 -0.19880894 -0.08968091 -0.058826905 0.03508163 -0.17327286
-0.14523403 -0.029251851 -0.17200457 -0.1279727 -0.10656319 -0.08675536 -0.21033452 -0.1128739
-0.06415066 -0.0786116 -0.039016593 -0.12719631 -0.07922658 -0.05632234 -0.075661436 -0.13373126
-0.09180057 -0.06114067 0.114893965 -0.033808894 0.06542274 0.014492121 -0.06669359 -0.008493313
-0.054477397 -0.1524401 -0.11324363 -0.1372105 0.14536142 0.0010772423 -0.122630216 -0.20078506
00000000: 70cf 0fbe f6fe 23bd 56b0 cb3c e9c0 43bd
00000010: 797b 6cbe 0a5f e0bd 2cfd 0e3c 33d5 a8bd
00000020: 93e7 20be 1bcc 72bc 48f0 d7bd b3ab 193e
00000030: 795a f1bd 3627 83bd 412a 43be 1d1f f43c
00000040: f615 d8bd 68e7 bdbd ad67 813d d763 82bd
00000050: 05cf bcbc 78eb a5be a907 31bd 1637 0cbe
00000060: c403 5e3d d090 a4bd bcc2 a3bd 9294 4bbe
00000070: a0aa b7bd 7bf4 70bd c1b1 0f3d 716e 31be
00000080: 3bb8 14be 94a1 efbc f721 30be 470b 03be
00000090: cd3d dabd cbac b1bd ef61 57be 6e2a e7bd
000000a0: 6c61 83bd 1eff a0bd ddcf 1fbd c03f 02be
000000b0: 8c41 a2bd 41b2 66bd 62f4 9abd d9f0 08be
000000c0: f001 bcbd a46e 7abd 874d eb3d 327b 0abd
000000d0: 5cfc 853d 5c70 6d3c a696 88bd 8927 0bbc
000000e0: b123 5fbd 4219 1cbe 47ec e7bd e980 0cbe
000000f0: a0d9 143e 4132 8d3a 8d25 fbbd 999a 4dbe

weight f4 [32, 64, 3, 3]
-0.09154496 -0.17713453 -0.1287129 -0.112890854 -0.13680841 -0.25702298 -0.10926326 -0.079179086
-0.03131331 -0.113424286 -0.0240577 -0.025902066 -0.31531343 0.15789829 0.040468287 -0.2908685
-0.37708482 -0.14028245 -0.004469821 0.00073837844 -0.045478623 0.085847326 0.06033997 0.06701754
-0.04104457 0.11625198 -0.028173495 0.080409825 -0.03642912 0.029677067 0.026694512 -0.25347728
0.009884565 0.03175953 0.02941902 -0.068978846 -0.0751609 0.0061685434 -0.1142463 -0.045583677
-0.119371735 -0.03987219 -0.06921381 -0.07576763 -0.07775109 0.032682247 0.043730937 -0.10304131
-0.065776065 0.022061875 -0.028394278 0.081206135 0.01351781 0.04296789 -0.14829578 -0.13539308
0.0143153835 0.0065966235 0.05182566 -0.24492007 -0.019795813 -0.30534285 -0.23162416 0.026419358
-0.03724739 0.020863371 0.09159037 0.06891495 -0.040525213 0.12726995 0.012326731 -0.034429017
-0.03510438 0.030607453 0.08858527 0.006067111 0.45441148 -0.04165555 0.0358704 -0.100204095
0.14297697 0.06897797 -0.04677484 -0.06952835 0.0604659 0.020065423 -0.13477814 -0.054770924
0.04856372 0.036192153 0.043060783 -0.042112976 -0.020772414 -0.023540894 -0.022332845 0.051453453
-0.0053585493 -0.09401559 0.16797322 -0.0682265 0.002256106 0.03013622 -0.031490408 -0.1040863
-0.24458404 -0.026024869 -0.35393524 -0.047639295 -0.032453597 -0.004542968 -0.004878391 -0.009944403
0.04803316 -0.028946172 -0.06926515 0.09492141 0.023285333 0.031151868 -0.00030641025 0.016203616
0.036081832 -0.081457146 -0.089218 0.053834565 -0.09474654 0.014174419 -0.071172714 -0.031940352
-0.0101754805 -0.17640807 0.10284716 -0.12226864 -0.11784467 -0.025090346 -0.016345346 -0.21675742
-0.25070712 0.035004973 0.1918295 -0.08973243 -0.06718574 0.0987769 0.0045057414 -0.061491538
-0.06074657 -0.19156809 -0.044919178 -0.06075022 -0.14306766 -0.2076512 0.12341087 0.14410833
-0.21524297 0.03127082 -0.11473812 0.027118932 0.042948958 0.10053144 0.035890944 0.02557024
-0.017614713 0.13784565 -0.091306746 -0.19255474 -0.14831702 -0.011991846 -0.03954093 -0.12666704
-0.14901207 -0.06735065 -0.042589642 -0.15306644 -0.2564372 -0.14086495 -0.02296439 -0.023874717
-0.2841284 -0.13394414 -0.28916207 -0.05792032 -0.018451056 -0.029918954 0.07066096 0.015603032
0.11394744 0.04819643 0.043089524 0.015376607 -0.036293577 -0.014510062 -0.07462954 0.05419419
0.36220318 -0.16002105 -0.0052726525 -0.024453968 -0.065623276 -0.0020286723 0.06002691 -0.03862478
-0.112480484 -0.29607245 -0.015839374 0.083631255 -0.27303416 -0.2877238 0.24870479 -0.081722595
-0.067787595 -0.2025431 -0.23071024 -0.27751386 -0.19948898 0.14222488 -0.22492954 -0.060897384
0.042831805 0.10192594 0.052564323 -0.07536463 0.04101057 0.0037895122 0.007831332 0.04152462
-0.019897716 -0.059482686 -0.0037733205 -0.04337299 0.032214075 -0.08012776 0.06473276 -0.05701791
0.028440354 0.0028052472 -0.019929877 0.054225367 -0.066467226 0.036527272 0.051950518 0.009086846
0.06770426 -0.09441514 0.08550666 0.039924465 -0.061313644 -0.05271664 -0.042155664 -0.035864834
-0.10349826 0.022307394 -0.0978133 0.004663407 0.14693825 -0.12491143 0.0548054 -0.019423926
00000000: ed7b bbbd c162 35be 51cd 03be 5233 e7bd
00000010: 8117 0cbe 8498 83be 6bc5 dfbd a528 a2bd
00000020: 6342 00bd fe4a e8bd a714 c5bc 9230 d4bc
00000030: c370 a1be 17b0 213e 13c2 253d b7ec 94be
00000040: 4311 c1be 34a6 0fbe 9477 92bb bd8f 413a
00000050: cb47 3abd b9d0 af3d 0b27 773d 7e40 893d
00000060: 5a1e 28bd 8515 ee3d 1acc e6bc e8ad a43d
00000070: b336 15bd 521d f33c 73ae da3c c6c7 81be
00000080: dff2 213c 4816 023d 2800 f13c c844 8dbd
00000090: f5ed 99bd 7e21 ca3b f7f9 e9bd f3b5 3abd
000000a0: 2b79 f4bd 0651 23bd f8bf 8dbd 0f2c 9bbd
000000b0: f73b 9fbd d2dd 053d 361f 333d 5307 d3bd
000000c0: 9ab5 86bd 1bbb b43c 1e9b e8bc 674f a63d
000000d0: ce79 5d3c 19ff 2f3d d9da 17be 7ca4 0abe
000000e0: 128b 6a3c 7d28 d83b 2547 543d 54cc 7abe
000000f0: d42a a2bc e655 9cbe e22e 6dbe 696d d83c
00000100: b890 18bd a9e9 aa3c bb93 bb3d 4823 8d3d
00000110: c4fd 25bd 0e53 023e 0ff6 493c 7105 0dbd
00000120: 9cc9 0fbd 7bbc fa3c 326c b53d 9ece c63b
00000130: 9fa8 e83e 039f 2abd d7ec 123d ce37 cdbd
00000140: 8e68 123e 5244 8d3d fa96 3fbd e164 8ebd
00000150: 17ab 773d 3e60 a43c 4803 0abe 7a57 60bd
00000160: c0ea 463d 393e 143d 8160 303d a87e 2cbd
00000170: e92a aabc d5d8 c0bc 5ff3 b6bc dbc0 523d
00000180: c596 afbb 3f8b c0bd 2c01 2c3e 56ba 8bbd
00000190: 2ddb 133b 3ce0 f63c 16fc 00bd 332b d5bd
000001a0: 3d74 7abe 1b32 d5bc 0037 b5be 6c21 43bd
000001b0: 10ee 04bd 2ddd 94bb e9da 9fbb d9ed 22bc
000001c0: 6bbe 443d 8620 edbc e3da 8dbd 2866 c23d
000001d0: e2c0 be3c 3432 ff3c b0a5 a0b9 72bd 843c
000001e0: 8bca 133d 01d3 a6bd edb7 b6bd a281 5c3d
000001f0: 790a c2bd d33b 683c 00c3 91bd e3d3 02bd
00000200: 0fb7 26bc 51a4 34be 88a1 d23d fb67 fabd
00000210: 8c58 f1bd 458a cdbc ade6 85bc a8f5 5dbe
00000220: af5c 80be 6061 0f3d f46e 443e a3c5 b7bd
00000230: ad98 89bd 8b4b ca3d e6a4 933b 8dde 7bbd
00000240: 65d1 78bd 6d2a 44be 2cfd 37bd 39d5 78bd
00000250: 5480 12be 84a2 54be d7be fc3d 2291 133e
00000260: a768 5cbe d515 003d d2fb eabd 8628 de3c
00000270: 3feb 2f3d 6de3 cd3d 6202 133d ae78 d13c
00000280: bb4c 90bc 6927 0d3e 08ff babd 122d 45be
00000290: 6be0 17be 7379 44bc acf5 21bd 01b5 01be
000002a0: 9f96 18be 23ef 89bd 7a72 2ebd 73bd 1cbe
000002b0: bd4b 83be e73e 10be d11f bcbc e994 c3bc
000002c0: 4779 91be a728 09be 0d0d 94be dc3d 6dbd
000002d0: ab26 97bc 9818 f5bc b2b6 903d dca3 7f3c
000002e0: 475d e93d 9f69 453d a47e 303d 2aee 7b3c
000002f0: 93a8 14bd 9cbb 6dbc 5fd7 98bd bafa 5d3d
00000300: b272 b93e 8fdc 23be 37c6 acbb b053 c8bc
00000310: 7f65 86bd 79f3 04bb c7de 753d 0435 1ebd
00000320: 2b5c e6bd cf96 97be 93c1 81bc dd46 ab3d
00000330: 22cb 8bbe 8950 93be 78ac 7e3e 2d5e a7bd
00000340: 39d4 8abd 7567 4fbe 4e3f 6cbe 4c16 8ebe
00000350: d746 4cbe 66a3 113e ee53 66be 896f 79bd
00000360: 6770 2f3d 8cbe d03d b04d 573d c558 9abd
00000370: b3fa 273d 7759 783b fd4e 003c b815 2a3d
00000380: 8900 a3bc 1ea4 73bd d049 77bb e0a7 31bd
00000390: e8f2 033d 061a a4bd 9c92 843d 9d8b 69bd
000003a0: bffb e83c 3dd8 373b fb43 a3bc 6b1b 5e3d
000003b0: f81f 88bd 9f9d 153d 11ca 543d ffe0 143c
000003c0: 88a8 8a3d ba5c c1bd 1e1e af3d d687 233d
000003d0: 0424 7bbd 67ed 57bd 6bab 2cbd 01e7 12bd
000003e0: e5f6 d3bd ffbd b63c 5752 c8bd 7ecf 983b
000003f0: fb76 163e 90d1 ffbd a17b 603d ed1e 9fbc

bias f4 [32]
-0.1997057 -0.089158684 -0.09611774 -0.07714498 -0.06318915 -0.06517076 -0.27315596 0.00014109052
0.0418086 -0.14297248 -0.060814288 -0.13461065 -0.12848747 -0.06705701 -0.06508715 0.032826874
-0.06861772 -0.014660583 0.14174533 -0.08348002 -0.24741872 -0.061141375 -0.021493785 -0.10506104
-0.047003537 -0.041921332 -0.1015753 -0.08827548 -0.08911889 0.039080847 -0.17627788 -0.11382989
00000000: a77f 4cbe d498 b6bd 61d9 c4bd 30fe 9dbd
00000010: 5069 81bd 3f78 85bd 19db 8bbe b3f1 1339
00000020: 7f3f 2b3d 6167 12be 6718 79bd 60d7 09be
00000030: 3892 03be 3055 89bd 694c 85bd 7975 063d
00000040: 7287 8cbd f132 70bc b025 113e 93f7 aabd
00000050: 555b 7dbe 616f 7abd bc13 b0bc 3e2a d7bd
00000060: c886 40bd b4b5 2bbd b606 d0bd c6c9 b4bd
00000070: f783 b6bd 3d13 203d 3082 34be a51f e9bd

weight f4 [9, 32, 3, 3]
-0.0434477 -0.1637394 -0.046536524 -0.019390756 0.07204608 -0.2924177 0.050691426 0.03644726
-0.07413789 0.035047133 -0.14735068 0.03522929 0.009704045 -0.013631111 0.00925021 -0.000927032
-0.012137648 0.010664181 -0.034076042 -0.026714804 0.08920256 -0.08989156 -0.053246982 0.12891714
-0.002817608 0.092527345 -0.05864783 0.23065309 0.12131101 0.45494676 -0.16757448 -0.039451182
0.089492306 0.030263329 0.0034977696 -0.0675834 0.002661195 0.03174046 0.023495043 0.055643007
-0.06741228 -0.0009562179 0.025239086 0.046798453 0.058535837 -0.023954002 -0.036083978 -0.004110324
-0.10789337 0.031480618 0.032497667 -0.04391463 0.09048325 -0.041270103 -0.018183941 0.1258739
-0.012601517 -0.09513325 -0.40615007 -0.007691302 0.11412658 0.038570095 0.0024396633 -0.04392679
-0.07694912 -0.015989691 0.10066859 0.12629549 -0.026874457 -0.01207614 -0.06118745 3.8342012e-05
0.15375215 0.0007974991 0.029243018 -0.07741974 0.03209517 -0.020342868 -0.007880147 -0.021808915
-0.00033999432 0.022522403 0.07153638 -0.014876978 0.0053512184 -0.10397967 -0.01684221 -0.006766333
0.01963548 0.018200815 0.0011988292 0.014146158 -0.01240245 -1.1739754e-05 0.091204375 -0.00215863
-0.02478045 0.0046481164 0.011036475 0.037901066 -0.11338633 0.1397486 0.054971296 0.051546536
-0.037131634 0.028430287 -0.006614171 -0.007654581 0.01193966 0.017079482 0.07154375 0.012848369
0.036438547 0.04795008 -0.00025212235 -0.033681273 0.09370295 -0.0036927413 0.031095373 -0.027704662
-0.073694415 -0.031804956 -0.003025058 -0.05441 -0.055627428 -0.0660046 -0.022912243 -0.015394454
0.015962377 0.0145809855 0.13783827 -0.032150067 0.010298039 -0.0063910373 -0.028500129 0.012660643
0.02285913 0.009481515 -0.03394717 -0.16298215 0.059423115 0.09256513 -0.053734917 -0.01245055
0.13440205 -0.12087446 -0.07506567 -0.046698924 -0.021837965 -0.03608062 -0.05246451 -0.058856666
-0.059578698 -0.01510703 -0.1245312 0.007269242 0.032447044 0.044204496 0.008508831 -0.0047542253
-0.0055777086 0.0134574305 0.02182807 0.20640664 -0.00567593 0.100764595 0.2058714 -0.009955797
-0.011386358 0.0024774864 0.009739678 0.00019543414 -0.019630658 0.054344155 0.05297572 0.10792596
0.08499578 0.022419298 -0.006622654 -0.029651815 0.041893385 0.042396177 0.03781094 -0.045819268
0.10511949 0.08033626 -0.21082246 -0.16894625 0.048749056 -0.011920579 0.072822765 0.065375276
0.05924357 0.122124255 0.15315741 0.11574137 0.051696263 0.016317591 0.0809939 -0.042302314
0.010098947 0.07755999 -0.0041336836 0.019193338 -0.029056532 -0.015084906 0.0020266494 -0.10335974
0.055373162 0.02271553 0.118399374 0.02136525 -0.03498819 0.009442893 0.1016765 0.078615054
0.007325777 -0.08627066 -0.040334906 -0.001831416 0.098476596 -0.06239672 0.0014502793 -0.04933756
0.016724985 -0.054617457 -0.013563627 -0.052710667 -0.008723782 0.054419145 -0.002546794 0.089327365
-0.016237512 0.022870427 0.0134231215 0.04699666 -0.03978339 -0.059471693 -0.06522579 0.037400592
-0.08370887 0.041465737 0.017348701 -0.013937849 0.0051613827 0.011846217 0.09083958 -0.0781738
0.03603826 -0.1326165 0.13892002 0.0037600906 0.0010707122 0.018959384 -0.0073396 -0.052202232
00000000: 37f6 31bd 4dab 27be 159d 3ebd 5dd9 9ebc
00000010: e58c 933d c6b7 95be d0a1 4f3d b949 153d
00000020: 9bd5 97bd 958d 0f3d 19e3 16be 974c 103d
00000030: b7fd 1e3c 0655 5fbc 318e 173c 1004 73ba
00000040: fcdc 46bc d1b8 2e3c 5293 0bbd 01d9 dabc
00000050: d5af b63d 1119 b8bd 8219 5abd db02 043e
00000060: 9ea7 38bb fa7e bd3d b538 70bd 5330 6c3e
00000070: e871 f83d c8ee e83e a598 2bbe 9097 21bd
00000080: be47 b73d cdea f73c d63a 653b 2a69 8abd
00000090: 7167 2e3b 4902 023d ad78 c03c ece9 633d
000000a0: 730f 8abd b2aa 7aba 33c2 ce3c bcaf 3f3d
000000b0: 46c3 6f3d 2f3b c4bc cbcc 13bd e6af 86bb
000000c0: 33f7 dcbd d2f1 003d 461c 053d d4df 33bd
000000d0: 484f b93d d70a 29bd 7df6 94bc 16e5 003e
000000e0: 9876 4ebc 39d5 c2bd e7f2 cfbe 5107 fcbb
000000f0: 32bb e93d adfb 1d3d c2e2 1f3b 94ec 33bd
00000100: 8097 9dbd d0fc 82bc 552b ce3d 9b53 013e
00000110: d227 dcbc 01db 45bc b19f 7abd 6cd1 2038
00000120: 3471 1d3e 420f 513a 0e8f ef3c 3e8e 9ebd
00000130: 3a76 033d 16a6 a6bc bb1b 01bc 9ca8 b2bc
00000140: 4441 b2b9 e780 b83c aa81 923d 91be 73bc
00000150: 4659 af3b 4bf3 d4bd adf8 89bc 1db8 ddbb
00000160: 96da a03c e019 953c 0822 9d3a 49c5 673c
00000170: a533 4bbc dcf5 44b7 5cc9 ba3d cd77 0dbb
00000180: 5f00 cbbc 3a4f 983b 55d2 343c 263e 1b3d
00000190: 1837 e8bd 421a 0f3e 9529 613d 7622 533d
000001a0: 5717 18bd a2e6 e83c b0bb d8bb 48d3 fabb
000001b0: 909e 433c 45ea 8b3c 8885 923d f781 523c
000001c0: 9640 153d 4e67 443d 4a2f 84b9 60f5 09bd
000001d0: 55e7 bf3d eb01 72bb b9bb fe3c e3f4 e2bc
000001e0: 19ed 96bd ea45 02bd 0d40 46bb 05dd 5ebd
000001f0: 96d9 63bd 6b2d 87bd 75b2 bbbc 0539 7cbc
00000200: 88c3 823c 16e5 6e3c 7a25 0d3e caaf 03bd
00000210: 1bb9 283c e86b d1bb 1a79 e9bc 966e 4f3c
00000220: 1243 bb3c 5b58 1b3c 300c 0bbd cbe4 26be
00000230: a765 733d c992 bd3d 2519 5cbd 64fd 4bbc
00000240: b1a0 093e 078d f7bd 08bc 99bd 5f47 3fbd
00000250: 88e5 b2bc 46c9 13bd 07e5 56bd b013 71bd
00000260: cb08 74bd 7a83 77bc 370a ffbd d232 ee3b
00000270: 31e7 043d c60f 353d a068 0b3c 55c9 9bbb
00000280: 36c5 b6bb 8e7c 5c3c c8d0 b23c 435c 533e
00000290: 27fd b9bb ab5d ce3d f4cf 523e a41d 23bc
000002a0: d98d 3abc 535d 223b 2c93 1f3c 74ed 4c39
000002b0: 79d0 a0bc fa97 5e3d 12fd 583d 4908 dd3d
000002c0: 4412 ae3d ada8 b73c d902 d9bb 5de8 f2bc
000002d0: 6698 2b3d 9da7 2d3d a5df 1a3d fcac 3bbd
000002e0: e348 d73d 5687 a43d d8e1 57be 3f00 2dbe
000002f0: 17ad 473d 884e 43bc 1a24 953d 79e3 853d
00000300: 63a9 723d 481c fa3d 4cd5 1c3e d009 ed3d
00000310: 76bf 533d 78ac 853c 21e0 a53d 3145 2dbd
00000320: 0e76 253c c6d7 9e3d da73 87bb 593b 9d3c
00000330: f707 eebc ae26 77bc 89d1 043b 45ae d3bd
00000340: f8ce 623d eb15 ba3c 5f7b f23d 2d06 af3c
00000350: c74f 0fbd 5db6 1a3c c53b d03d ee00 a13d
00000360: 120d f03b acae b0bd 3736 25bd 200c f0ba
00000370: 19ae c93d b493 7fbd 4c17 be3a 2e16 4abd
00000380: d602 893c 8eb6 5fbd fa39 5ebc 24e7 57bd
00000390: 32ee 0ebc 9ce6 5e3d 1de8 26bb 44f1 b63d
000003a0: 8804 85bc c35a bb3c a7ec 5b3c 927f 403d
000003b0: e8f3 22bd 9798 73bd 1995 85bd 5d31 193d
000003c0: 8e6f abbd fad7 293d dd1e 8e3c 935b 64bc
000003d0: d120 a93b a316 423c 1a0a ba3d 9619 a0bd
000003e0: db9c 133d 9fcc 07be 0d41 0e3e da6b 763b
000003f0: 2457 8c3a b650 9b3c 0781 f0bb 02d2 55bd

bias f4 [9]
0.029846946 0.027029077 0.029831974 0.029477017 0.026235651 0.029094739 0.030627398 0.027743183
0.030064749
00000000: 9581 f43c 156c dd3c 2f62 f43c c979 f13c
00000010: 26ec d63c 1758 ee3c 4fe6 fa3c ac45 e33c
00000020: 594a f63c
